ml/banknote_sd_model.pth (torch, 2731 bytes, 5 tensors)

hid1.weight f4 [8, 4]
00000000: a75c 8c3c af61 193f 1765 dbbe 8585 c83e
00000010: 1367 71bf c267 4bbf a2fa 31bf 6417 d23e
00000020: 8d2d 883f 008f 86be 682f 053f 0690 133f
00000030: 374b ea3f 7fb6 9a3f b63e b13f e806 bb3e
00000040: becc bfbe 4d87 2abf 0b74 8bbf d554 9abe
00000050: e23a b3bf f857 67bf 1063 4fbf 0810 413e
00000060: e706 afbf d422 adbe 8045 09bf 0f5d cf3e
00000070: ac84 cdbd c4de e7be 5094 963e 0738 0fbe
0.017134024 0.5991468 -0.42850563 0.39164367 -0.94297904 -0.79455197 -0.6952306 0.4103347
1.0638901 -0.26280975 0.5202546 0.5764164 1.8304204 1.2086943 1.3847263 0.36528707
-0.37460893 -0.666127 -1.0894789 -0.30142847 -1.4002345 -0.90368605 -0.8101053 0.18853772
-1.3673981 -0.33815634 -0.53621674 0.40500686 -0.10035071 -0.45287144 0.29410028 -0.13986216

hid1.bias f4 [8]
00000000: daf0 d0bc 5d8e d43d 9576 4bbd 6abc efbd
00000010: 08a6 79bc e294 3e3d 9ea7 a33d e826 29bd
-0.025505472 0.10378716 -0.049673636 -0.11705859 -0.015237339 0.046528704 0.07990955 -0.04129687

hid2.weight f4 [8, 8]
00000000: 97ff 893d 86ce 80bf e16a d6bd 3e35 af3e
00000010: 0650 08bf f081 cf3c 7908 f1be 69d5 c1be
00000020: dff4 943e b593 ffbc 87a9 063f 650e 1b3d
00000030: 0f3c c3bb 8200 e1be bd7d 8dbe db88 eabe
00000040: 054e 81be 2cbc c03e aeab 71be c6dd 6abf
00000050: 3a60 173f 0fdf 923f 4388 7e3f 32ad 443e
00000060: d3d4 8b3d c929 8cbf 1401 6f3f db91 7a3f
00000070: 66fe 04bf 0960 96bf 4167 13bf 6235 6bbe
00000080: 1f47 db3e 0a14 ffbc 97f2 3ebf ef6c 4abf
00000090: ba42 11bd 91af 313f 3f2b 873d f9f2 adbe
000000a0: 3228 2b3e 4b53 d63c 8b7b 56be 9ed8 6b3f
000000b0: c2e5 1f3e dbda 513e 148a 2bbf 5f4d 3d3e
000000c0: c4c7 a1be fb36 703d dc23 97bb cc93 893f
000000d0: 4de2 7bbe 1f2f 00bf 44d3 9dbe faf8 033e
000000e0: 4c1f 8c3e 0b8f 273f 29f6 69be 3603 c3bf
000000f0: 5c67 563f 19e3 8b3f c3e0 6b3f b73e a03e
0.06738203 -1.0063026 -0.10469604 0.34220308 -0.53247106 0.025330514 -0.47076777 -0.37858132
0.29093072 -0.031198362 0.5260243 0.037855525 -0.0059580873 -0.439457 -0.27634993 -0.45807537
-0.25254837 0.37643564 -0.23600647 -0.9174465 0.59131205 1.1474322 0.9942667 0.19206694
0.068277024 -1.0950252 0.9336102 0.9787881 -0.5195068 -1.1748058 -0.5757943 -0.22969583
0.428277 -0.031137485 -0.7458891 -0.7907247 -0.035464026 0.6940852 0.066000454 -0.33974436
0.16714552 0.026162764 -0.20945565 0.92127407 0.1561499 0.20493643 -0.67007565 0.18486546
-0.31597722 0.058646183 -0.004612429 1.0748229 -0.24598046 -0.500719 -0.30825245 0.12887946
0.27367628 0.6545264 -0.22847809 -1.5235355 0.83751464 1.092868 0.92139834 0.31297848

hid2.bias f4 [8]
00000000: 585a 7cbd 5f32 2f3c decb 903c 028f 863c
00000010: 746c e83c 7f22 a0bc b66c 10bd aadf 263d
-0.061609596 0.010693162 0.017675336 0.016425613 0.028372027 -0.019547699 -0.035259925 0.040740646

oupt.weight f4 [1, 8]
00000000: 0e18 87bf e050 06bf 9136 fb3f 091e 13c0
00000010: e748 993f ae85 56bf 6ec4 95bf 1315 1440
-1.0554216 -0.52467155 1.9626027 -2.2987082 1.1975373 -0.8379773 -1.170057 2.3137863
